…
2020-02-11 21:01:32.932344: I tensorflow/core/platform/cpu_feature_guard.cc:142] Your CPU supports instructions that this TensorFlow binary was not compiled to use: AVX2 FMA
2020-02-11 21:01:32.948346: I tensorflow/compiler/xla/service/service.cc:168] XLA service 0x7fc707c03aa0 executing computations on platform Host. Devices:
2020-02-11 21:01:32.948365: I tensorflow/compiler/xla/service/service.cc:175]   StreamExecutor device (0): Host, Default Version
Model: "sequential_1"
_________________________________________________________________
Layer (type)                 Output Shape              Param #   
=================================================================
conv2d_1 (Conv2D)            (None, 26, 26, 32)        320       
_________________________________________________________________
conv2d_2 (Conv2D)            (None, 24, 24, 32)        9248      
_________________________________________________________________
max_pooling2d_1 (MaxPooling2 (None, 12, 12, 32)        0         
_________________________________________________________________
conv2d_3 (Conv2D)            (None, 10, 10, 64)        18496     
_________________________________________________________________
max_pooling2d_2 (MaxPooling2 (None, 5, 5, 64)          0         
_________________________________________________________________
flatten_1 (Flatten)          (None, 1600)              0         
_________________________________________________________________
dense_1 (Dense)              (None, 128)               204928    
_________________________________________________________________
dropout_1 (Dropout)          (None, 128)               0         
_________________________________________________________________
dense_2 (Dense)              (None, 10)                1290      
=================================================================
Total params: 234,282
Trainable params: 234,282
Non-trainable params: 0
_________________________________________________________________
Train on 60000 samples, validate on 10000 samples
Epoch 1/100
 - 46s - loss: 0.4019 - accuracy: 0.8765 - val_loss: 0.3323 - val_accuracy: 0.8981
Traceback (most recent call last):
  File "/Users/mitsukakiyohara/GitHub/ATCS_y4_-mitsukakiyohara/Secondus/kuzushiji-MNIST/secondus.py", line 242, in <module>
…
